victini.pth (torch, 121563 bytes, 5 tensors)

model.0.weight f4 [30, 964]
0.008041133 0.031523347 0.004527234 0.013411182 0.018479276 0.025978703 0.03081512 -0.012925485
0.014092514 -0.028267972 0.02136403 0.026812881 -0.004276801 -0.021912217 0.020415127 -0.015921572
-0.0061968006 0.025326476 0.0051677027 -0.017082013 0.005226138 -0.020238383 0.022616997 -0.022319818
-0.008606251 0.009735357 -0.009509968 0.01214239 -0.017815556 -0.002358308 0.0053441077 0.017038323
0.0040414557 0.001216758 0.015996967 0.0032142247 -0.0104275895 -0.027587904 -0.024792627 -0.030534105
0.029684542 -0.0042290958 -0.026641686 -0.0056145247 -0.005900621 0.028085258 0.008820941 0.029195283
0.02872707 -0.0071787382 -0.007512098 -0.02047761 -0.028793588 -0.009350817 -0.012697988 0.0134732835
-0.031746227 -0.009746762 -0.02653265 0.008891341 0.020984085 0.012256824 0.0059002526 0.021654163
0.03418647 0.00078494416 -0.013325767 0.035318937 0.01734358 -0.0049372455 -0.003988616 -0.0056467317
-0.0049239974 0.0016334243 -0.027035885 0.024993002 0.017127408 -0.0076031787 -0.013543084 -0.008487707
0.010590121 0.001079602 0.009852402 -0.02407179 -0.008312367 -0.0075443946 0.0013714992 0.018866006
0.012916164 0.017938545 -0.02324925 0.0059700357 -0.025655383 -0.0059179403 0.014520802 -0.01035215
-0.016547991 0.022766104 0.013011635 -0.015035635 0.012639739 0.011529154 0.018811984 0.0007539651
0.008465242 0.02737189 -0.01008364 0.022814976 -0.026605748 0.008236899 0.0009985593 0.0086572375
0.014525116 -0.01887423 0.028607212 0.027594402 -0.0021996922 0.020950085 0.015553976 0.021304598
-0.016693346 0.010010495 0.024121726 -0.024731789 0.0077878814 -0.012319076 0.027520236 -0.013118379
0.00012443674 0.013222907 -0.015743477 0.024996443 -0.009431106 0.006313752 -0.0012227065 0.026164262
0.027859213 -0.002669908 0.0069558513 -0.0011705601 -0.021500213 -0.015128316 0.009346425 0.02234895
0.00044112542 0.01704851 -7.9494755e-05 0.013630918 -0.031894792 -0.002981843 0.02734945 0.0119310925
0.026512178 0.02621916 -0.0130503 0.030133065 0.03745638 0.002176559 -0.009562694 0.020872861
-0.0032149905 -0.0014095171 0.014508792 -0.009790446 0.031231754 -0.003929333 -0.024392948 0.014907827
0.01620273 -0.013168621 0.007184022 -0.010462333 0.0068899933 -0.014278642 -0.0039338246 0.016095566
-0.009411709 -0.020202026 -0.01065102 0.004035632 0.009195764 -0.024127346 0.01411494 0.015796946
-0.021701334 0.0045042746 -0.012810728 -0.023985155 -0.012415042 -0.023978049 -0.015883803 -0.004010618
0.0064218584 -0.0040616975 -0.00474528 -0.01710554 0.012356112 0.03043179 0.029805962 0.0031164594
0.020151291 0.01518948 0.013984311 0.016857695 0.032862682 -0.018512815 -0.021175908 0.0031239474
-0.011124842 0.031126387 -0.012477219 0.01881127 0.030653492 0.031398617 0.031735793 0.0053464486
-0.02532368 -0.024797304 0.024120513 -0.028295914 0.0001421683 -0.0054675858 -0.01469519 -0.014187496
-0.008046483 -0.01993667 0.01836069 0.009065974 0.0021854306 0.008339063 -0.007504404 -0.01705468
-0.019489184 0.030601993 -0.03208619 0.029564008 0.029527733 -0.02733966 -0.012349454 0.00556535
0.031042907 -0.019656222 0.01958698 0.013753994 -0.022170141 -0.018108401 0.015215572 0.0150216445
0.0012556249 0.03159845 0.025245072 0.023252532 -0.0063892724 0.020711951 2.9270053e-05 -0.0003343892
00000000: f5be 033c a01e 013d 3159 943b 93ba 5b3c
00000010: da61 973c 4ad1 d43c fe6f fc3c 6ac5 53bc
00000020: 4ae4 663c 3c92 e7bc 9e03 af3c b0a6 db3c
00000030: 6824 8cbb 4081 b3bc a03d a73c f56d 82bc
00000040: 880e cbbb 7879 cf3c d555 a93b 94ef 8bbc
00000050: 0640 ab3b f7ca a5bc 4847 b93c 0dd8 b6bc
00000060: 3c01 0dbc 0c81 1f3c b2cf 1bbc e0f0 463c
00000070: eef1 91bc d88d 1abb a01d af3b f493 8b3c
00000080: 306e 843b a07b 9f3a 120c 833c bea5 523b
00000090: 7bd8 2abc 0700 e2bc e819 cbbc a922 fabc
000000a0: ff2c f33c 3a94 8abb aa3f dabc 0cfa b7bb
000000b0: ff59 c1bb 0e13 e63c b585 103c f22a ef3c
000000c0: 0855 eb3c 9f3b ebbb 0c28 f6bb a9c0 a7bc
000000d0: 88e0 ebbc 2b34 19bc 390b 50bc 0cbf 5c3c
000000e0: 5508 02bd e2b0 1fbc 005b d9bc fdac 113c
000000f0: d1e6 ab3c d9d0 483c e856 c13b 1264 b13c
00000100: 1d07 0c3d b6c4 4d3a 5154 5abc 97aa 103d
00000110: 2014 8e3c 9ec8 a1bb f0b2 82bb 3808 b9bb
00000120: 7c59 a1bb a018 d63a 5c7a ddbc 20be cc3c
00000130: c74e 8c3c 1624 f9bb d0e3 5dbc 0610 0bbc
00000140: 3082 2d3c 6f81 8d3a f86b 213c 3432 c5bc
00000150: 9830 08bc f836 f7bb e0c3 b33a e28c 9a3c
00000160: 519e 533c dbf3 923c 3675 bebc 4aa0 c33b
00000170: 3d2b d2bc 48eb c1bb a8e8 6d3c 109c 29bc
00000180: a78f 87bc fb7f ba3c c12e 553c 0658 76bc
00000190: e816 4f3c c7e4 3c3c 971b 9a3c bea5 453a
000001a0: ccb1 0a3c 043b e03c da35 25bc 79e6 ba3c
000001b0: 4cf4 d9bc 0ff4 063c 17e2 823a 16d7 0d3c
000001c0: c1fa 6d3c 219e 9abc ac59 ea3c a80d e23c
000001d0: b628 10bb 839f ab3c 1bd6 7e3c fb86 ae3c
000001e0: 7cc0 88bc 0f03 243c ed9a c53c 529a cabc
000001f0: 7c31 ff3b f3d5 49bc 1e72 e13c 78ee 56bc
00000200: 3c7b 0239 e4a4 583c 77f8 80bc 57c5 cc3c
00000210: ed84 1abc 97e3 ce3b 3943 a0ba 6f56 d63c
00000220: 0139 e43c a0f9 2ebb e9ed e33b 7b6d 99ba
00000230: 3721 b0bc c2dc 77bc bf21 193c 2515 b73c
00000240: da46 e739 51a9 8b3c 6cb6 a6b8 3754 5f3c
00000250: 1da4 02bd 066b 43bb f40b e03c a17a 433c
00000260: 1130 d93c 90c9 d63c edd0 55bc 9ed9 f63c
00000270: dc6b 193d 9aa4 0e3b d8ac 1cbc 90fd aa3c
00000280: 97b2 52bb 8cbf b8ba 49b6 6d3c 1b68 20bc
00000290: bcd9 ff3c a2c1 80bb b8d3 c7bc f53f 743c
000002a0: 96bb 843c 33c1 57bc f267 eb3b 356a 2bbc
000002b0: 74c5 e13b f7f0 69bc 50e7 80bb d9da 833c
000002c0: 9233 1abc b87e a5bc 9e81 2ebc 563d 843b
000002d0: d4a9 163c b6a6 c5bc 5942 673c 9968 813c
000002e0: ffc6 b1bc 9898 933b 16e4 51bc 847c c4bc
000002f0: 7668 4bbc 9d6d c4bc c01e 82bc 816b 83bb
00000300: 746e d23b fd17 85bb 4b7e 9bbb eb20 8cbc
00000310: 4a71 4a3c 174c f93c a22b f43c 833d 4c3b
00000320: 5214 a53c 4cdd 783c 741e 653c 2619 8a3c
00000330: 059b 063d 30a8 97bc 1979 adbc 24bb 4c3b
00000340: f844 36bc c4fc fe3c 406d 4cbc 181a 9a3c
00000350: 081d fb3c d69b 003d 64fd 013d 4331 af3b
00000360: 9b73 cfbc b723 cbbc 6298 c53c d5cc e7bc
00000370: 0313 1539 6f29 b3bb 18c4 70bc ac72 68bc
00000380: 65d5 03bc 3a52 a3bc 2869 963c 7389 143c
00000390: 7139 0f3b 91a0 083c 81e7 f5bb 42b6 8bbc
000003a0: c8a7 9fbc 08b1 fa3c cf6c 03bd 3830 f23c
000003b0: 25e4 f13c 6cf7 dfbc 5d55 4abc 8a5d b63b
000003c0: b24d fe3c 1606 a1bc e074 a03c 6f58 613c
000003d0: 289e b5bc 1258 94bc bc4a 793c 581d 763c
000003e0: c893 a43a 606d 013d c1ce ce3c 187c be3c
000003f0: 1a5d d1bb 1cac a93c f688 f537 f550 afb9

model.0.bias f4 [30]
-0.02645781 -0.017116673 0.029336952 0.00018718767 -0.014869496 -0.012260759 0.015490893 -0.01289522
0.00082863664 -0.020475997 -0.029668048 0.030185832 0.022850111 -0.01207471 0.016347414 0.014561472
0.031857383 0.0032042086 -0.0019074084 -0.028602587 -0.014306565 0.013169342 -0.015211548 0.01659826
0.012070419 0.02863509 0.029153384 -0.009618471 0.0071734716 -0.030733101
00000000: 0dbe d8bc 4438 8cbc 0c54 f03c cf47 4439
00000010: 309f 73bc 5ae1 48bc 84cd 7d3c 7946 53bc
00000020: dd38 593a 47bd a7bc 680a f3bc 4748 f73c
00000030: 2830 bb3c 01d5 45bc 03eb 853c 3e93 6e3c
00000040: e37c 023d b3fd 513b 0102 faba f94f eabc
00000050: 1566 6abc 39c4 573c db39 79bc 13f9 873c
00000060: 02c3 453c 2394 ea3c 14d3 ee3c cb96 1dbc
00000070: 710f eb3b fcc3 fbbc

model.2.weight f4 [30, 30]
-0.11728631 0.05287447 -0.030859798 0.13675824 -0.12247993 -0.029417202 0.013117364 -0.021684293
-0.15687646 -0.09183965 -0.022179373 0.127415 -0.1281311 0.023756478 0.03292427 0.15874064
-0.08246185 0.15817273 0.02063992 -0.10008543 0.15820771 -0.15191324 -0.13951018 -0.15330637
-0.014091804 0.07352256 0.1420202 0.09240186 -0.13965255 -0.051060963 -0.008358053 0.04056663
-0.002031646 0.16319211 0.114007674 -0.026429424 -0.005651639 -0.14090662 -0.02606509 -0.06657331
-0.0017126172 -0.082242236 0.096946925 -0.0849639 0.02885555 -0.12860116 -0.10781906 0.17689298
-0.176595 0.116348244 0.083677076 -0.12180082 -0.01696074 -0.15335979 -0.09268039 0.06116383
0.16527455 0.17071591 -0.11912612 -0.023296513 -0.1203551 -0.10813447 0.10275713 0.09700696
0.10435549 -0.18167594 -0.12795123 0.13328108 0.04227441 0.03663205 0.13575889 -0.17768641
-0.14857328 -0.0612327 -0.11340934 -0.17735875 0.16893873 0.052273985 0.13941993 0.054311745
-0.18157707 0.14498448 -0.17739742 0.041517623 0.11769702 0.12927368 0.10676628 -0.1191941
0.08290618 0.12910217 -0.07497388 -0.10237424 0.06770883 -0.07739944 -0.10817998 -0.16718452
-0.043370955 0.18278962 0.049860902 -0.097442925 -0.08307039 0.15052925 0.091888525 0.12881237
0.06937641 0.032452263 -0.09167486 -0.16710457 -0.1352336 0.17034462 0.04517031 0.057226747
0.16208048 -0.1420299 0.12272653 0.024028948 -0.012891676 0.047826964 -0.11381909 -0.14461164
-0.1617869 0.034009058 0.13523185 -0.15787442 0.070336886 0.073776655 -0.10868832 -0.08979215
0.054194566 -0.06814216 0.08146907 -0.1310075 -0.1244279 -0.08278483 0.08229103 0.119584724
-0.024152288 0.044318266 -0.16926284 0.04205173 -0.063716196 -0.12616752 0.15094882 0.17792688
-0.15868762 -0.110671595 -0.08596819 0.14897041 -0.13229743 -0.1530315 -0.1122051 0.10066541
-0.1411881 0.182571 0.17018008 0.058472723 0.101628385 -0.05631252 -0.16292855 -0.19279134
0.15989561 0.044971697 -0.041137055 0.14338647 0.062827334 -0.17256762 0.06352401 0.10857788
0.110619776 0.13186866 -0.095740244 0.09824337 0.12657642 0.15027936 -0.07407633 -0.12111384
-0.104643114 -0.07085607 -0.16965222 0.03771779 0.13520639 0.09252086 -0.13822179 -0.095796965
-0.022935262 -0.09100039 0.12757158 0.0671276 0.060269605 0.045201104 -0.111663505 0.048554905
0.1024288 0.08020499 0.03636651 -0.13633026 0.13250428 0.15195078 0.13839467 0.0072886767
0.12301497 -0.16767195 -0.0026509399 0.11979295 -0.020632727 -0.025933497 -0.069449015 0.016939452
-0.078967504 0.12708141 0.07823205 -0.15532288 0.08925216 0.16531773 0.0974447 -0.07636548
0.11174628 0.02233865 -0.012903883 -0.07184141 0.114787355 0.14837883 0.17673567 -0.11019642
0.011425381 -0.051316746 0.005325219 -0.078147195 0.1229736 0.04854337 -0.17957753 -0.065622084
0.16493905 0.025086826 -0.15508379 0.12132669 -0.07742661 -0.014855132 0.027667435 -0.006201561
0.08046046 0.12781675 0.14311342 -0.021227878 0.06382486 0.06367782 -0.098739885 0.04779528
-0.028780665 -0.16671091 0.16309765 -0.03444505 -0.07332901 0.024121132 -0.011236568 -0.14835632
00000000: ce33 f0bd e692 583d b0cd fcbc 5a0a 0c3e
00000010: c2d6 fabd 58fc f0bc 36ea 563c 42a3 b1bc
00000020: 39a4 20be 6d16 bcbd 84b1 b5bc 1479 023e
00000030: cd34 03be f29c c23c 99db 063d e88c 223e
00000040: c2e1 a8bd 08f8 213e 0d15 a93c 97f9 ccbd
00000050: 3401 223e 258f 1bbe c2db 0ebe 58fc 1cbe
00000060: 4fe1 66bc ff92 963d be6d 113e 303d bd3d
00000070: 1401 0fbe 4d25 51bd 37f0 08bc 3229 263d
00000080: 5d25 05bb d51b 273e db7c e93d 8582 d8bc
00000090: 6231 b9bb d349 10be 7586 d5bc 9657 88bd
000000a0: e679 e0ba 9e6e a8bd 1c8c c63d 8e01 aebd
000000b0: 7962 ec3c 06b0 03be 3dd0 dcbd 6f23 353e
000000c0: 52d5 34be fd47 ee3d e35e ab3d b572 f9bd
000000d0: 40f1 8abc 590a 1dbe 37cf bdbd ed86 7a3d
000000e0: bb3d 293e 27d0 2e3e 65f8 f3bd 54d8 bebc
000000f0: bc7c f6bd 9b75 ddbd 5572 d23d 96ab c63d
00000100: 55b8 d53d 4209 3abe a605 03be d67a 083e
00000110: ef27 2d3d 7d0b 163d 6104 0b3e 6df3 35be
00000120: 9823 18be 24cf 7abd 2843 e8bd 889d 35be
00000130: 46fe 2c3e 3f1d 563d 19c4 0e3e fe75 5e3d
00000140: 57ef 39be d076 143e aba7 35be 620e 2a3d
00000150: 230b f13d 5260 043e 48a8 da3d 091c f4bd
00000160: b7ca a93d 5c33 043e e88b 99bd 96a9 d1bd
00000170: edaa 8a3d 9983 9ebd 778d ddbd 6b32 2bbe
00000180: bea5 31bd 342d 3b3e f23a 4c3d 2890 c7bd
00000190: cf20 aabd 5724 1a3e 0d30 bc3d 64e7 033e
000001a0: 3815 8e3d aaec 043d 07c0 bbbd 761d 2bbe
000001b0: ad7a 0abe d26e 2e3e 8104 393d 9866 6a3d
000001c0: 6df8 253e 4970 11be 0c58 fb3d 5bd8 c43c
000001d0: 9c37 53bc 35e6 433d fc19 e9bd 1315 14be
000001e0: 77ab 25be 154d 0b3d 387a 0a3e d5a9 21be
000001f0: c90c 903d 3718 973d fb97 debd f2e4 b7bd
00000200: 1ffb 5d3d 1e8e 8bbd 41d9 a63d d526 06be
00000210: 0ed4 febd 188b a9bd 3388 a83d d6e8 f43d
00000220: 05db c5bc 1287 353d 3d53 2dbe 6f3e 2c3d
00000230: a37d 82bd 0f32 01be 5492 1a3e 7732 363e
00000240: 027f 22be caa7 e2bd 1710 b0bd b38b 183e
00000250: fa78 07be 4ab4 1cbe cacb e5bd ab29 ce3d
00000260: 9d93 10be e4f3 3a3e b043 2e3e 1881 6f3d
00000270: 8b22 d03d f5a7 66bd bed6 26be 186b 45be
00000280: adbb 233e 3e34 383d 547f 28bd e7d3 123e
00000290: 9eab 803d 91b5 30be e018 823d 145e de3d
000002a0: 9f8c e23d 9408 073e 7613 c4bd d233 c93d
000002b0: 409d 013e d5e2 193e 55b5 97bd 880a f8bd
000002c0: 214f d6bd fd1c 91bd 50b9 2dbe f87d 1a3d
000002d0: 8b73 0a3e 947b bd3d 038a 0dbe 3331 c4bd
000002e0: bbe2 bbbc 6a5e babd 20a2 023e 327a 893d
000002f0: 43dd 763d cb24 393d d6af e4bd 82e1 463d
00000300: 31c6 d13d 8442 a43d 0df5 143d 299a 0bbe
00000310: 34af 073e fc98 1b3e 55b7 0d3e dad5 ee3b
00000320: 46ef fb3d 32b2 2bbe 64bb 2dbb 0256 f53d
00000330: f705 a9bc 7c72 d4bc 493b 8ebd 9bc4 8a3c
00000340: b7b9 a1bd a121 023e 2038 a03d f60c 1fbe
00000350: d6c9 b63d 0d49 293e 1691 c73d 8165 9cbd
00000360: 3cdb e43d 8bff b63c cf6a 53bc 9721 93bd
00000370: a215 eb3d 9ff0 173e 32fa 343e a9ae e1bd
00000380: 8531 3b3c 8231 52bd 2d7f ae3b a30b a0bd
00000390: 95d9 fb3d 6ad5 463d 2ce3 37be df64 86bd
000003a0: c8e5 283e e382 cd3c 49ce 1ebe 217a f83d
000003b0: d891 9ebd f162 73bc d1a6 e23c 7736 cbbb
000003c0: 74c8 a43d 65e2 023e 538c 123e 16e6 adbc
000003d0: 9cb6 823d 8469 823d 2338 cabd fcc4 433d
000003e0: 6ec5 ebbc 44b6 2abe 1203 273e 4116 0dbd
000003f0: 852d 96bd ae99 c53c 9519 38bc b8ea 17be

model.2.bias f4 [30]
-0.16429913 -0.060079202 0.009901662 -0.017667947 0.16651548 -0.13658941 -0.09274496 -0.06625814
0.15513127 0.005055981 -0.17883253 0.053901877 0.042276785 0.14549376 0.1735392 0.1660713
0.17475167 0.1718855 -0.061144102 -0.14753519 0.18051776 0.042251248 -0.1442368 0.055860452
0.03589345 -0.17209348 0.005261133 0.07019217 -0.08972007 -0.014643871
00000000: 083e 28be 9c15 76bd 953a 223c 5fbc 90bc
00000010: 0983 2a3e 18de 0bbe 12f1 bdbd 59b2 87bd
00000020: bbda 1e3e a5ac a53b e01f 37be 37c8 5c3d
00000030: 6c2a 2d3d 51fc 143e 43b4 313e 980e 2a3e
00000040: 1af2 323e c102 303e 3d72 7abd 7713 17be
00000050: a6d9 383e a50f 2d3d d0b2 13be eecd 643d
00000060: 0305 133d 4639 30be 9565 ac3b eac0 8f3d
00000070: 28bf b7bd d9ec 6fbc

model.4.weight f4 [2, 30]
-0.09368416 0.16866209 -0.034947865 -0.1923422 -0.07866771 0.08291981 0.16902359 0.07455556
-0.08677632 0.15467912 0.050576 -0.073901735 -0.124691434 0.041388553 0.034165964 -0.12998566
-0.04125532 -0.027503563 0.07634971 0.115917705 -0.1265161 -0.10228102 -0.074664 -0.020998113
-0.06623004 -0.05197141 0.1444375 -0.010474932 0.003032097 0.074734956 0.011104327 -0.113039985
0.0987314 -0.12469267 -0.028443335 0.009498049 0.139823 0.005172827 0.18519732 0.15474033
-0.0030373097 0.022669172 0.04146105 0.093235925 -0.088972 -0.011590327 0.07062007 0.10442393
0.15502532 -0.12187542 0.13582952 -0.05913578 -0.12635054 -0.006021519 -0.011321146 0.045690168
-0.015556891 -0.09733008 0.06538446 -0.041357547
00000000: 7bdd bfbd c1b5 2c3e 7e25 0fbd 5bf5 44be
00000010: 891c a1bd ddd1 a93d 8514 2d3e 96b0 983d
00000020: c9b7 b1bd 3464 1e3e c828 4f3d cb59 97bd
00000030: 395e ffbd 0b87 293d 9cf1 0b3d f61a 05be
00000040: 57fb 28bd 274f e1bc 3d5d 9c3d 4366 ed3d
00000050: 708d 01be b678 d1bd 70e9 98bd 3c04 acbc
00000060: 9da3 87bd f9df 54bd 6de7 133e 0d9f 2bbc
00000070: 25b6 463b a40e 993d ecee 353c 8281 e7bd
00000080: b033 ca3d df5e ffbd ff01 e9bc b49d 1b3c
00000090: c32d 0f3e d180 a93b 5ea4 3d3e 4074 1e3e
000000a0: 9a0d 47bb b3b4 b93c 10d3 293d 7af2 be3d
000000b0: f436 b6bd 5be5 3dbc 41a1 903d 37dc d53d
000000c0: f5be 1e3e d299 f9bd e516 0b3e 5c38 72bd
000000d0: 0962 01be 2a50 c5bb 547c 39bc 9d25 3b3d
000000e0: 55e2 7ebc fe54 c7bd 4ae8 853d 8866 29bd
