victini_gogoat.pth (torch, 118796 bytes, 5 tensors)

model.0.weight f4 [30, 940]
00000000: 704c c43c 8d12 883c fb42 4d3c c9ef e3bc
00000010: eb98 40bc 5965 e43c a2ef d1bc c870 cfbc
00000020: cc97 063c b419 85bc dd40 9fbb 701e 8bbc
00000030: abf4 2c3c d5f8 5c3c b23d bd3c b142 fdbc
00000040: 0ca1 e2bc a2ed f0bb f751 4b3c 386f 05bd
00000050: 3986 c23c cf7e 9a3c 94ae 043c c061 52bc
00000060: 6081 1b3c 0ed0 59bc c7b1 b2bc e06e d83a
00000070: a087 493c 0802 68bc 1ad9 75bc 52bf e8bc
00000080: 2079 a03c ec6e b6bc b187 fbbc e1da f73c
00000090: aa38 b8bb cdcd d63c 8a16 103c 30d7 9cbb
000000a0: e0e3 f2bb 8fe5 ecbc bfba 873c c0b1 b93c
000000b0: a427 e0bc 3fe6 87bb 76c2 d83b 075b 6b3c
000000c0: 60f8 c63c e458 d33c bcac da3c 6ab2 b23c
000000d0: 0a1c 2ebc b6c9 033d 972c 8b3c b5b2 9bbc
000000e0: a818 df3c 5cfc ebbc c7f5 123b 1cf7 c8bc
000000f0: 80de 68bc 125e 80bc 97b6 a23c cce8 1abc
00000100: e532 a4bb 8590 ca3c 6aa0 0bbc 48c7 e93c
00000110: 00a3 973b 94dc d03c ce19 dc3c f437 7f3c
00000120: de63 b5bc 7131 cf3c def8 ef3c 1e6d 74bc
00000130: adf6 003d c405 bfbb 32ea 7bbc a5df 06bd
00000140: 13df 79bb 2d0e f2ba c910 b93c 4294 aebc
00000150: dbb9 ca3c 88fe 083b ed91 d0bc 55f9 f23c
00000160: c54e 623c ed4c 633c d1ea b33a aebb fdbc
00000170: 1329 fbbb 06ff 31bc 2c0f f6bc 35eb d2bc
00000180: 108c 58bc ba37 813b 7c0b 9d3c f601 49bc
00000190: b419 883c 775b c7bb e10f 513b 78b7 04bc
000001a0: 650b 033c 13d3 f23b 0ad8 18bc b101 2b3b
000001b0: a0d8 843c fd5c 09ba 749a 0fbc 5cd9 d8bc
000001c0: dffe d3bb f167 cc3c 391a d7bc d5c5 f13c
000001d0: 83d0 8fbc 7d0b 7cbc 0a90 ee3c 4f99 c0bc
000001e0: b722 303b 0c8c cebb 9eba babc 4bf9 f73b
000001f0: bc65 b6bc 412a f6bc a517 603c a1aa 7ebb
00000200: 3116 b43c b28b 75bc 7769 e73a 4fb4 ecbc
00000210: a3c7 833c d205 d7bb d52f 90bc ebfd 9ebc
00000220: f859 42bc 02a7 003c 2395 ba3c c6a8 f9bc
00000230: 6575 933c a929 e8bc 4a3b 7dbc 4395 a739
00000240: e8d2 5ebc 8aea 9bbb 50e2 e9bc 34d8 e03b
00000250: 6698 c5bc 813e e4bc 67f3 a3bb da31 033d
00000260: b95e 0f3d 3cc4 cc3b be44 eebc 2b7b a7bc
00000270: d943 903c ca22 f03a 9ef4 22bc 7488 f0bc
00000280: 3584 f3bb be6e c0bc f271 213c c228 1c3c
00000290: 2378 a83c df9b f03c 6812 f73c 768b 2f3a
000002a0: a5f8 5a3c c523 653c 2a1e f4ba 3046 3abc
000002b0: 7e09 693c 1880 813b c7f7 893c 9ef4 cd3c
000002c0: 188f 913b 8d5e 3bbc 5b6f d2bc ab50 65bc
000002d0: dacb 99bc 6203 cc3c 3069 483a 8730 03bc
000002e0: 8220 fdbc 43aa 09bc c3d8 04bc fbc0 ef3c
000002f0: 0327 f03b fcc2 3b3c 344d 64bc fcd6 353c
00000300: 742a d9bb 54cf 773c eec5 18bc c380 f3bb
00000310: f889 093c 6585 bf3c a3e6 17bc dabc 023b
00000320: bca5 333c 043d 6b3c a441 313c 5a6c a23c
00000330: faa8 863c 9eda 2dbc 3011 3cbb 6dd4 b33b
00000340: 0449 5f3c c0bd 54bb e6e5 97bc abbf 00bd
00000350: b12d 283b 163d 803c 1621 bdb9 f537 963b
00000360: aecf 343b 22ef acbc f1d4 98bb 68cf c8ba
00000370: 791f 20bc 9f2a fa3c b87c a63c ca7b d0bc
00000380: a4d9 1dbc 9c58 023c 56b9 a5bc 7e61 b23c
00000390: 9592 fd3c 5a8d a13c c984 b6bb d46e 33bc
000003a0: 9a96 023b e3ba 4d3b b616 cabc 293f 273c
000003b0: 2b56 f2bc 277d ff3c c6f6 75bc e412 d4bb
000003c0: 7f16 023d 733d a1bc e7da 95bb 9d3f 033c
000003d0: 5c72 83bc 831a 003d 862a 79bc bd51 a6bc
000003e0: d35d e9bb e16c 953c e75f b1bb f940 dc3c
000003f0: b513 bb3c 6656 25bc 55cb e3bc fe95 06bb
0.02396223 0.016610408 0.012528176 -0.0278243 -0.0117552085 0.027880358 -0.025626961 -0.025322333
0.008214902 -0.016247608 -0.004860027 -0.016982287 0.01055638 0.013487061 0.023100708 -0.03091559
-0.027664684 -0.007352547 0.012409679 -0.03257677 0.023745643 0.018859295 0.008098263 -0.012840688
0.009491295 -0.013294233 -0.021813286 0.0016512536 0.012300402 -0.014160641 -0.015005374 -0.028411541
0.019589007 -0.022269689 -0.030704351 0.030255737 -0.0056219893 0.02622118 0.008794436 -0.0047863945
-0.0074124187 -0.028918056 0.01656854 0.022667766 -0.027362652 -0.0041473205 0.0066149784 0.014364964
0.024288356 0.025799222 0.026693694 0.02181359 -0.010626802 0.03217479 0.016989036 -0.019006113
0.027233437 -0.028806858 0.0022424327 -0.024531893 -0.014213204 -0.015669856 0.019862456 -0.009454917
-0.00501095 0.024727115 -0.008522132 0.028537408 0.0046275854 0.025495805 0.026867773 0.015577305
-0.022142347 0.02529213 0.029293474 -0.014918594 0.03148525 -0.0058295447 -0.015375661 -0.032928128
-0.0038127347 -0.001846736 0.022591012 -0.02131093 0.024746826 0.0020903666 -0.025460208 0.029659906
0.013812725 0.013873321 0.0013726597 -0.030973282 -0.0076648085 -0.010864025 -0.030036531 -0.025746921
-0.013216987 0.0039434107 0.019170515 -0.012268534 0.016613819 -0.0060839015 0.0031900334 -0.008100383
0.007998322 0.007410416 -0.0093288515 0.0026093537 0.016216576 -0.00052399916 -0.008764852 -0.026470833
-0.006469592 0.024951907 -0.026257621 0.029513279 -0.01755548 -0.015383598 0.029121418 -0.023510603
0.002687616 -0.006303316 -0.022794064 0.00756756 -0.022265308 -0.030049445 0.013677512 -0.0038859027
0.021983238 -0.014986919 0.0017655332 -0.028894572 0.016086405 -0.006561973 -0.017600933 -0.019408187
-0.0118622705 0.007852318 0.022776192 -0.030475985 0.018000314 -0.028340178 -0.01545603 0.0003196393
-0.013600089 -0.004758184 -0.028550297 0.006861711 -0.02412052 -0.027861835 -0.005003381 0.032029964
0.035002444 0.006248979 -0.029085513 -0.020444473 0.017610477 0.0018320915 -0.009946017 -0.02936194
-0.007431532 -0.023490306 0.009853827 0.009531202 0.020565098 0.0293712 0.030160144 0.00066965015
0.013364946 0.013985579 -0.0018624712 -0.011369273 0.0142234545 0.0039520375 0.016841782 0.025141057
0.004442107 -0.011436117 -0.025687864 -0.0139962835 -0.018773962 0.024903957 0.00076450687 -0.008007175
-0.03089929 -0.00840241 -0.008108321 0.029266825 0.0073288693 0.011460062 -0.013934422 0.01109862
-0.0066273753 0.0151251145 -0.009324534 -0.007431121 0.008394711 0.023379037 -0.009271297 0.001994899
0.010964807 0.014357809 0.010818873 0.019827057 0.016437996 -0.010611204 -0.0028696768 0.0054879696
0.013628248 -0.0032461733 -0.018542241 -0.03143279 0.0025662 0.015654128 -0.0003607354 0.0045843073
0.0027589607 -0.021110121 -0.0046640565 -0.0015320601 -0.009773129 0.030537901 0.020323142 -0.025449652
-0.009634409 0.007955696 -0.020229977 0.021775004 0.030953685 0.019720722 -0.0055700284 -0.010951716
0.0019926191 0.003139191 -0.024669033 0.01020793 -0.029582104 0.031187607 -0.015012449 -0.0064719785
0.031759735 -0.019682622 -0.0045732143 0.008010772 -0.016045742 0.031275284 -0.015207892 -0.020302648
-0.0071217804 0.018240394 -0.005413044 0.02688645 0.022836545 -0.0100914 -0.027806917 -0.002053618

model.0.bias f4 [30]
00000000: fa43 b53c ed28 f3ba 9360 753c fdcb 723c
00000010: 1718 a83c 4aad 29bc b1ca af3c 9f68 aabc
00000020: 20b9 cf3c 531b a8bc 26d6 413c ef95 02bc
00000030: 5ad7 8c3c eeea 2cbc 8d99 c33c 31f9 533c
00000040: 2409 e2bc f95a debb 0e63 a63b 5b3b bebc
00000050: 006c 053d 6d49 aa3c bd07 8abc 7e19 053c
00000060: db86 203c a518 703b b7a3 b23b 8a72 db3c
00000070: 5493 1c3c 3a24 20bc
0.02212714 -0.0018551626 0.014976638 0.014819142 0.0205193 -0.010356257 0.021458955 -0.02080184
0.02535683 -0.020520842 0.011830842 -0.007970317 0.017192531 -0.0105540585 0.02387693 0.01293783
-0.02759225 -0.006785747 0.005077726 -0.023221662 0.0325737 0.020786965 -0.016849393 0.008123754
0.009797777 0.0036635783 0.0054516452 0.026788015 0.00955661 -0.009774262

model.2.weight f4 [30, 30]
00000000: 9cc1 223e 5e67 16be d32b 213e 455e 5ebc
00000010: e44b b7bd c911 333d d5c7 fe3d f65c c73d
00000020: 3bdd 273d 3a1a 3c3d 3329 3d3d 5155 083e
00000030: eec2 25be 1d30 0dbe 7765 dfbc f7bd 0f3e
00000040: 7686 a9bd 5619 ce3d 6097 0e3e 43d0 a0bd
00000050: 96fa c4bd 5972 243c 271c b43d 43f2 bc3d
00000060: 98ff 993d 279c 8fbd 7778 20be 0c35 86bd
00000070: d657 093e 5c5c c33d 8ea3 39be 1857 02bd
00000080: 797f 30be 1f94 d9bd a7fe edbd f020 473d
00000090: a258 c8bd ecc6 33be fa88 0c3e 1746 76bd
000000a0: b56f 79bc 2857 96bd ad66 1f3d 4b58 0dbe
000000b0: 7e16 113e 110b 113e ac49 173e 36d4 37bc
000000c0: b23a 0dbe 8e7d 9d3d 810c c4bd 58ce cabd
000000d0: 8458 3f3d 51cf 0b3d ce7f 3c3d 4e04 7abd
000000e0: f5e7 ea3d 8004 123d 6c97 9a3d 6dc9 993d
000000f0: ba69 3abe 2ad4 04be 0cfa 0e3e 70a8 353d
00000100: e901 b5bd 728e de3d b953 b5bd eec8 943d
00000110: 466f 90bd b1b8 a6bd 9820 22be a9b3 3a3d
00000120: 2a8b c13d c3a4 033e 2bbb 9fbd 050a bbbd
00000130: e76c b9bd 3ec4 89bc 8b6c c93d b99b c23d
00000140: ecc0 a3bd 279d 24be c3d4 ed3d 85f2 c5bd
00000150: 5104 1a3e e7a2 ae3c b3a7 9fbd 9d24 b83d
00000160: 4669 0fbe 39ba 793d a684 e13d 028c 85bd
00000170: 95fc efbd d573 a6bd 977c 343e 9950 013e
00000180: b63e 093b 6318 2a3e 4c81 9b3d feb7 d9bd
00000190: 9ed4 0dbe 1360 b43d dcc1 3ebd df45 043e
000001a0: b7a9 fa3d 7c94 6d3d 00fd 30be 29ec a8bd
000001b0: da0b 793d 61b9 163d 591d 003e 5e85 273e
000001c0: 72dc 23be 08f4 5d3c 752d 1e3e a2f7 17bc
000001d0: ac08 4bbd 8d4d dabd e81d 953d cd6d 0bbe
000001e0: 9425 103e c99a b03d eeab 2b3e ecc6 1dbe
000001f0: 2f8b 5d3d 2c67 b83d 2971 d73d 8b06 d43d
00000200: 67ad 823d 09e5 253e b393 22be ab7a 513d
00000210: 0a6a bcbd 649f 633d 4548 033e 7778 b4bd
00000220: 37c4 67bc b244 123d 3f52 2fbd 7d16 1abe
00000230: 9e4a 38be bdbd b83d 2fd7 1a3e 61f1 a4bd
00000240: 3ab2 2ebe 5d40 f4bd 3cf1 47bd d102 07be
00000250: 1c7a 5d3d ab52 1d3e 0aaa aabd 3fbb 343e
00000260: d9ed 71b9 b8f4 a5bd eccc ccbd 52d0 1fbe
00000270: 824c 903d ed8c a3bd 424b 1b3d bb2b ae3d
00000280: 8370 f7bc 9237 8b3c b188 34be 7ae1 a13d
00000290: 220e f83c 089f 9b3d 12bb eb3d 5a01 c83c
000002a0: ac59 9ebd 6f3d 04be 1e54 03be 1246 c93c
000002b0: 33ae 23be 35c7 16be 2105 2cbe 434a cd3d
000002c0: cc14 97bd 8846 e53b 75de c4bd d955 013e
000002d0: 311a aebd 3490 aebd c93d 103e 3181 77bc
000002e0: 169e b2bc 7c31 2b3e 18f9 29bd 330d 9abc
000002f0: a401 e1bd 4fe3 be3d 7058 953d 7e9b 243e
00000300: f26d de3d 65bb 2cbe d92b fdbd f3ed 09be
00000310: ce8f 1bbe eca0 093c b022 f4bd db7e 6abd
00000320: dd49 a33c 2efa b4bd da12 8b3c 9260 e33d
00000330: c860 d1bd 8bf8 29be 3de7 02bd e824 763d
00000340: 13dd 11be 80c6 27be 8709 81bd 433f e1bb
00000350: 6460 16be cf4e d63d 2e60 5abc 12b5 0cbe
00000360: 7481 f13d bb2a 91bd c4f0 adbd 1ae7 393e
00000370: a21f d33d 897e 113e d6d9 53bd cbb7 e13d
00000380: dd6b 2bbd 350a 38be b3d5 a2bd 980c 233d
00000390: be62 503d a758 c1bd dd06 153d 555b 1d3c
000003a0: 86b1 29bd edd6 34be 49fc 2c3d 4c55 843d
000003b0: c2ce 92bd 5814 2abe 0c6a a93d eb05 b43d
000003c0: faae 9b3d 47e0 fbbd 0d96 1c3e 8299 01be
000003d0: 5420 e93d 717f c0bd 9492 28be cf0a 393e
000003e0: c06f 38be e4bd 263e ccd2 293e dce8 d73d
000003f0: 2900 c93d e684 933c f35d 09be 743a 2f3e
0.15894169 -0.14687869 0.15739374 -0.01357228 -0.08950022 0.043718133 0.12440459 0.09734528
0.040982466 0.04592345 0.04618187 0.13313796 -0.16187641 -0.13787885 -0.027270062 0.1403731
-0.082775995 0.10063426 0.13924932 -0.07852223 -0.09618108 0.010037028 0.08794432 0.09225895
0.07519454 -0.070122056 -0.15670954 -0.06553087 0.13412413 0.095391005 -0.18128797 -0.03182134
-0.17236127 -0.10623955 -0.11620837 0.048615396 -0.0978253 -0.17556351 0.13724127 -0.060125437
-0.015224387 -0.073408425 0.03891628 -0.13803212 0.14168736 0.14164378 0.14774197 -0.011220029
-0.13791922 0.07689963 -0.095726974 -0.09902638 0.046715274 0.03413326 0.04602032 -0.06103926
0.114700235 0.035648823 0.07548413 0.07509122 -0.18204394 -0.12971559 0.13962573 0.044350088
-0.08838255 0.10867013 -0.088538595 0.07264887 -0.07052474 -0.08140696 -0.15832746 0.045581494
0.094503716 0.1285582 -0.07799371 -0.091327704 -0.090539746 -0.016817208 0.09835156 0.09502358
-0.07995781 -0.16075574 0.11612847 -0.096653976 0.15040709 0.021317912 -0.07795658 0.089913584
-0.14005002 0.06096861 0.11011629 -0.06520845 -0.11718098 -0.08127562 0.17625652 0.12628402
0.002094192 0.16610865 0.07593021 -0.10630797 -0.13850638 0.08807387 -0.046571597 0.12917279
0.12239402 0.058002934 -0.17284012 -0.08248169 0.06080232 0.036797885 0.12511195 0.1635947
-0.16002062 0.013546951 0.15447028 -0.009275349 -0.049568817 -0.10659323 0.07281095 -0.13616104
0.14076835 0.08623273 0.16764805 -0.15407914 0.054087814 0.090040535 0.105196305 0.103528105
0.0638073 0.16200651 -0.15876655 0.051142376 -0.09199913 0.05557193 0.12820537 -0.08812039
-0.014145902 0.035710044 -0.042803045 -0.15047641 -0.17997214 0.09020565 0.15121149 -0.08053852
-0.17060176 -0.11926339 -0.048814043 -0.13184668 0.05407153 0.15363567 -0.083332136 0.17649554
-0.00023072156 -0.08103317 -0.10000023 -0.15606812 0.07045843 -0.07985864 0.03791357 0.08504435
-0.030205017 0.016994271 -0.17630269 0.07904334 0.030280177 0.07598692 0.1151029 0.024414707
-0.07731947 -0.1291406 -0.12825057 0.024569545 -0.1598442 -0.14724429 -0.16798832 0.1002393
-0.073770136 0.0069969334 -0.09612743 0.12630405 -0.08501089 -0.08523598 0.14086069 -0.015106485
-0.021803897 0.16718096 -0.04149732 -0.018805122 -0.10986641 0.093206994 0.07292259 0.1607494
0.10860814 -0.1686836 -0.12361879 -0.13469677 -0.15191576 0.008400183 -0.119206786 -0.057249885
0.019932682 -0.088367805 0.016976763 0.11102404 -0.10223538 -0.16598718 -0.031958807 0.06009379
-0.1424449 -0.16384315 -0.06300645 -0.0068739965 -0.14685208 0.1046425 -0.013328595 -0.13740948
0.11792269 -0.07088228 -0.08493188 0.18154564 0.10308768 0.14208426 -0.051721416 0.11021384
-0.041850913 -0.17972644 -0.07950916 0.039806932 0.050875418 -0.09440737 0.0363835 0.009604295
-0.041429065 -0.17660113 0.042232785 0.064615816 -0.07168342 -0.16609323 0.0827218 0.08790191
0.076017335 -0.12298637 0.15291615 -0.12656215 0.11383119 -0.093993075 -0.16462165 0.1807053
-0.18011379 0.16283375 0.16584319 0.10542461 0.09814484 0.018007707 -0.13414745 0.17112142

model.2.bias f4 [30]
00000000: ab29 0b3e 4b8b 08bd 7f0a 66bb 145e 033e
00000010: 99fc 77bd ae38 75bd 7c62 643d f3e9 1fbe
00000020: 1e9f 27be 172c 4fbb c820 dabd 10d6 263e
00000030: 8f7a c3bb 8e7f c9bd 2f8e 90bc 8b80 393e
00000040: dd32 1a3d 2ddb 253d 1b89 2a3d 3d55 be3d
00000050: fea6 1ebd 062c ef3d 214f e7bd d0a5 a33d
00000060: 5fbc 0abe 5a54 15be 1562 873a 58a8 16bd
00000070: 533d 78bd cc14 40bc
0.13590114 -0.033335965 -0.003510147 0.12828857 -0.06054363 -0.059868507 0.055757985 -0.15616588
-0.16369292 -0.0031611973 -0.10650784 0.16292596 -0.005965538 -0.09838782 -0.017645923 0.18115442
0.037646163 0.040492225 0.04163466 0.09293602 -0.038733475 0.11678319 -0.112943895 0.079906106
-0.1354842 -0.14582959 0.0010328913 -0.03678164 -0.06060536 -0.011723708

model.4.weight f4 [2, 30]
00000000: be6a 1b3e f0e6 f33c e246 b9bc a5a6 14be
00000010: 6297 eb3c 5706 3a3d 0ac3 0a3e 2bc3 113e
00000020: 4277 983d ae2f 09be 2fc7 afbd ccac 5dbc
00000030: 4248 853d 76cd 123d b9b4 143e 5d8e 2dbe
00000040: a19c 2e3d 927a 12be d491 74bd 8013 a4bc
00000050: 10fa 01be 86ed 81bd 44dd efbd d1b9 8e3d
00000060: 3191 a63d 54b4 22be cd85 cf3d 68ae cbbd
00000070: 4db5 fe3d 26c5 35bd 3cd1 33be 012f 89bd
00000080: cb95 ed3d 0414 31be 2d7f fa3d abca b6bd
00000090: 978b 23bd d80d 59bc b215 fe3c e9b3 98bd
000000a0: b236 06be 1e8e 02be c2e7 b43b ed39 cbbd
000000b0: 2b10 e7bd 15ae f93c 88ad ff3d c9e2 e33d
000000c0: 2144 9c3c 7fe8 1c3e f8f2 153e 117f 6b3d
000000d0: f0cf eebd 52c6 3cbd b66e 083e 1d61 ec3d
000000e0: a540 6cbd 0f56 01be 294b 053d 203f f13c
0.15177438 0.029773206 -0.022616807 -0.14516695 0.028758708 0.045416202 0.13550964 0.14234607
0.074446216 -0.13397095 -0.08582913 -0.0135299675 0.06507923 0.035840474 0.14522065 -0.16948839
0.04262984 -0.1430457 -0.059709385 -0.02002883 -0.12693048 -0.06344132 -0.11712125 0.069690354
0.08133162 -0.15889102 0.10132942 -0.09945375 0.12436924 -0.04437747 -0.17560285 -0.066984184
0.11600836 -0.17292792 0.12231288 -0.089253746 -0.039928045 -0.0132479295 0.031016205 -0.0745619
-0.13106802 -0.12749526 0.0055207917 -0.09923158 -0.11282381 0.030478517 0.1248427 0.1112724
0.019075455 0.15323065 0.14643466 0.057494227 -0.11660755 -0.04608757 0.13323483 0.115419604
-0.057678837 -0.12630485 0.03254238 0.029449046
