victini.pth (torch, 121563 bytes, 5 tensors)

model.0.weight f4 [30, 964]
00000000: c0e1 033c 22ef 023d 785a 943b 7cfe 5c3c
00000010: da61 973c f4d2 d43c 6a80 fc3c 8bfe 4fbc
00000020: 27e6 663c 8c6d e7bc bc03 af3c 0dd2 db3c
00000030: 5c24 8cbb 057e b3bc a03d a73c f56d 82bc
00000040: 880e cbbb 7879 cf3c 12e0 c93b 2ae4 89bc
00000050: 31ea f13b aa85 9abc e5f7 c73c fd50 a6bc
00000060: 3c01 0dbc 0c81 1f3c b2cf 1bbc e0f0 463c
00000070: eef1 91bc d88d 1abb a01d af3b f493 8b3c
00000080: 306e 843b a07b 9f3a b90e 833c cf78 733b
00000090: 08d3 2abc 53ff e1bc f87a c5bc a722 fabc
000000a0: 6629 f33c 2575 87bb 3fac d9bc 1a9f b7bb
000000b0: 4756 c1bb 66a2 ee3c 6ca7 103c db5b f33c
000000c0: de55 eb3c 4002 e8bb 0c28 f6bb a9c0 a7bc
000000d0: 13d1 ebbc 4329 16bc 9a07 50bc a819 5e3c
000000e0: 2508 02bd 41ce 1ebc fe5a d9bc 3eb2 113c
000000f0: d1e6 ab3c d9d0 483c e856 c13b 1264 b13c
00000100: 6a89 123d eff4 1d3b a4c7 38bc 0d62 133d
00000110: e3fd 9b3c c3b5 5dbb f0b2 82bb 3808 b9bb
00000120: 7c59 a1bb a018 d63a 5c7a ddbc 20be cc3c
00000130: c74e 8c3c 1624 f9bb d0e3 5dbc 0610 0bbc
00000140: d685 2d3c cae0 d43a 9e6f 213c 3831 c5bc
00000150: 2436 f9bb fd36 f7bb e0c3 b33a 8776 9b3c
00000160: 6396 543c f305 933c b477 bebc 8efe bf3b
00000170: 2717 d2bc 2c49 a0bb 31f4 6d3c 76c3 24bc
00000180: ea8c 87bc c882 ba3c 8555 553c f8db 6ebc
00000190: 2422 4f3c 57b8 3e3c 271f 9a3c a7ab 563a
000001a0: 1cb7 0a3c b132 e03c 7430 25bc 36e9 ba3c
000001b0: 8ff1 d9bc 75f9 063c 99ee 663b 9a6c 103c
000001c0: 1a6c 8d3c 0a69 71bc 630d ef3c a6c7 f23c
000001d0: 5413 10bb 40a2 ab3c 81db 7e3c b889 ae3c
000001e0: bfbd 88bc 7508 243c aa9d c53c 9597 cabc
000001f0: 323c ff3b 8dd0 49bc 7277 e13c 7ed6 50bc
00000200: 0b1e 0539 42aa 583c 4e65 74bc 14c8 cc3c
00000210: 877f 1abc b961 d23b 0293 a0ba c77a d63c
00000220: d345 e43c bd0b a4ba 5e1f e43b 9a27 a8b6
00000230: f623 b0bc c3af 75bc 921d 193c 47de b73c
00000240: 445b e939 bfbf 8b3c 56e7 a6b8 f880 613c
00000250: 71a4 02bd a83d 3ebb a709 e03c abee 433c
00000260: 902d d93c 0fc7 d63c 0dd6 55bc 1dd7 f63c
00000270: 010b 2c3d 9b20 0d3c 835a f1bb 19e4 b53c
00000280: f47f 28bb 27ab 6bbb 29b1 6d3c 3b6d 20bc
00000290: 3bd7 ff3c f2cb 80bb 39d6 c7bc d03a 743c
000002a0: 15b9 843c 53c6 57bc a25d eb3b 556f 2bbc
000002b0: 51eb e13b 7b2e 4cbc 73c1 80bb 4cd8 833c
000002c0: f36d 10bc 3981 a5bc be86 2ebc 3aef 873b
000002d0: a50e 173c 96bc c5bc 3f3d 673c 18ad 873c
000002e0: c7ba b1bc 6302 a43b 5de8 51bc e9ba c3bc
000002f0: 926d 4bbc de5d c4bc d413 82bc 133e 7cbb
00000300: a668 d23b b0ee 83bb 2d86 9bbb b41b 8cbc
00000310: 296c 4a3c f249 f93c 2129 f43c 0429 4c3b
00000320: d111 a53c 2cd8 783c 438f 7b3c 59ad 953c
00000330: 37a1 0e3d ad5b 93bc 9969 a2bc 8c27 8a3b
00000340: 184a 36bc 43fa fe3c 6072 4cbc 9717 9a3c
00000350: 871a fb3c ab9a 003d 39fc 013d f326 af3b
00000360: 1c76 cfbc 3826 cbbc d09b c53c 477e e2bc
00000370: 2cbf 1639 be33 b3bb 8d13 67bc cc77 68bc
00000380: 85da 03bc d8d0 a2bc c8ef 963c a697 143c
00000390: 3b8a 0f3b e229 193c 99c0 f5bb d0ed 84bc
000003a0: 19aa 9fbc b55d fb3c 6b6e 03bd b92c f23c
000003b0: f2ed f13c a7b9 ddbc 585e 4abc 4477 b63b
000003c0: ee48 fe3c a749 a1bc bd71 a03c cb23 623c
000003d0: 74a1 b5bc 1115 94bc d243 793c 6e16 763c
000003e0: aa0f 113b fa9d 023d 72e2 df3c 2b2c ca3c
000003f0: ebed a9bb b319 b63c 2897 e737 1330 b0b9
0.008049428 0.031966336 0.0045273863 0.013488408 0.018479276 0.025979497 0.030822951 -0.012694965
0.0140929585 -0.028250478 0.021364085 0.026833558 -0.0042767953 -0.021910677 0.020415127 -0.015921572
-0.0061968006 0.025326476 0.0061607445 -0.01683243 0.007382654 -0.018862564 0.024410198 -0.02030229
-0.008606251 0.009735357 -0.009509968 0.01214239 -0.017815556 -0.002358308 0.0053441077 0.017038323
0.0040414557 0.001216758 0.015998231 0.0037150865 -0.01042629 -0.027587568 -0.024106488 -0.030534102
0.029682826 -0.0041338378 -0.026571391 -0.005603683 -0.0059001776 0.029130172 0.008828979 0.029706886
0.028727468 -0.0070803463 -0.007512098 -0.02047761 -0.028786218 -0.009165111 -0.012697125 0.013555922
-0.03174605 -0.009692729 -0.026532646 0.008892594 0.020984085 0.012256824 0.0059002526 0.021654163
0.03577558 0.002410229 -0.011278067 0.03598218 0.019041961 -0.0033830262 -0.003988616 -0.0056467317
-0.0049239974 0.0016334243 -0.027035885 0.024993002 0.017127408 -0.0076031787 -0.013543084 -0.008487707
0.010590991 0.0016241309 0.009853272 -0.02407132 -0.007605331 -0.007544397 0.0013714992 0.018977417
0.012975308 0.017947173 -0.023250438 0.0058592027 -0.025645806 -0.0048915353 0.014523552 -0.010056367
-0.016546685 0.02276744 0.013020878 -0.014578812 0.012642417 0.01164063 0.018813683 0.00081890303
0.008466508 0.027367922 -0.010082353 0.022816282 -0.026604442 0.008238186 0.003523743 0.008814955
0.01726346 -0.014734516 0.029181188 0.029636215 -0.0021984177 0.02095139 0.0155552635 0.021305904
-0.01669204 0.010011782 0.024123032 -0.024730483 0.0077891583 -0.012317789 0.027522776 -0.012746451
0.0001269506 0.013224186 -0.014916731 0.024997748 -0.009429819 0.006420341 -0.0012250843 0.026181592
0.027865326 -0.0012515705 0.006961747 -5.0114004e-06 -0.021501523 -0.014995518 0.009345429 0.022444857
0.0004450922 0.017059205 -7.9585865e-05 0.013763659 -0.031895105 -0.002902845 0.027348353 0.011958758
0.026510984 0.026217965 -0.013051522 0.03013187 0.04200268 0.008613731 -0.007365526 0.022203492
-0.0025711032 -0.003596017 0.01450757 -0.009791668 0.03123056 -0.003930562 -0.024394142 0.0149066
0.016201535 -0.013169843 0.0071827928 -0.010463555 0.006894507 -0.012462254 -0.003929311 0.01609435
-0.008815276 -0.02020322 -0.010652242 0.004148391 0.0092198 -0.024137776 0.014113723 0.01656203
-0.021695508 0.0050051673 -0.012811747 -0.023892837 -0.01241626 -0.02397054 -0.015878595 -0.0038489148
0.0064211665 -0.0040262565 -0.0047462196 -0.017103054 0.012354889 0.030430768 0.029804768 0.0031152377
0.020150097 0.015188258 0.0153539805 0.018271135 0.034821715 -0.01798805 -0.019825744 0.00421614
-0.011126064 0.031125193 -0.012478441 0.018810077 0.030652298 0.031397503 0.03173468 0.0053452193
-0.025324874 -0.024798498 0.024122149 -0.027648104 0.00014376332 -0.0054688146 -0.014103782 -0.014188718
-0.008047705 -0.019874975 0.018424883 0.009069359 0.002190246 0.009348365 -0.007499766 -0.01622668
-0.019490289 0.030684331 -0.032087725 0.029562341 0.029532406 -0.027066065 -0.012351595 0.005568417
0.031040635 -0.01968844 0.019585485 0.013802479 -0.022171713 -0.018076451 0.0152139235 0.015019996
0.002213458 0.03188894 0.027329657 0.024679264 -0.0051858327 0.022229051 2.7607734e-05 -0.00033605154

model.0.bias f4 [30]
00000000: 62ac d8bc 862d 8cbc e88c ef3c 14a4 5139
00000010: 45c4 71bc 4134 4abc dc28 813c 4ff9 55bc
00000020: 6172 523a 333b a6bc 9617 f2bc 30bc f53c
00000030: f555 bb3c 1353 47bc 0325 863c 1aa1 6e3c
00000040: 4a50 023d fe9f 473b a90d efba 2232 eabc
00000050: 0d8b 6abc a9ac 573c 58c9 79bc bfb9 873c
00000060: 26db 453c 77a8 ea3c cee0 ec3c cb8f 1dbc
00000070: bb12 eb3b 47b1 fbbc
-0.026449386 -0.017111551 0.029241994 0.00019992917 -0.014756267 -0.01234156 0.015766554 -0.013059928
0.0008027908 -0.0202919 -0.029552262 0.029996961 0.022868136 -0.0121658025 0.01637507 0.014564777
0.03181485 0.0030460353 -0.0018238324 -0.028588358 -0.014315379 0.013163724 -0.015245758 0.016568063
0.012076175 0.028644783 0.028915789 -0.009616802 0.0071738637 -0.03072418

model.2.weight f4 [30, 30]
00000000: 2839 f0bd ce75 593d c9a6 f7bc ab37 fa3d
00000010: 01e5 f7bd 1e4d e1bc 07a5 5239 f397 95bc
00000020: e0d3 49be a1c0 a0bd e3b4 b4bc 380e 163e
00000030: 621e 05be 1bf1 8b3d ad8f 073d 8468 2b3e
00000040: dd11 afbd f5db 283e c6d0 bb3c 9c5b dfbd
00000050: 02db 0f3e 6ac0 12be 4458 13be 9066 21be
00000060: 8105 62bc d715 943d 23f0 123e 0202 bd3d
00000070: 6f69 0fbe 7f00 49bd e6cb 0ebc ee50 253d
00000080: f8e5 3cbc eec7 fc3d 5fd7 d73d 9659 cfbd
00000090: afa6 66bc 4b89 14be bfef 98bb 2396 b2bd
000000a0: 9ecd d0bb 05bb 05be 6d79 c53d e1d1 f5bd
000000b0: 1d15 e83c 06cf 03be 221a ddbd bc55 2e3e
000000c0: f7a8 35be 873e f43d 2f15 063e a8f2 efbd
000000d0: 45ef 28bd c07d 1dbe 422f bfbd 38bf 7a3d
000000e0: bd49 2c3e e6dd 2d3e b11a f1bd f23f ddbc
000000f0: 7ffb f5bd 1c48 debd adc8 d03d d672 ab3d
00000100: 37e2 be3d 9326 45be c4d5 11be 0592 003e
00000110: 6c04 1c3d 338b 263c c1ef f73d a2be 3fbe
00000120: c982 18be b229 98bd 0342 e8bd 459d 35be
00000130: c17d 293e 44c8 573d a5dc 073e 75b6 403d
00000140: a34c 3fbe 0fb3 fb3d 1bcc 40be e1b9 253d
00000150: dfd7 f03d 3359 043e 1876 c93d 8829 f4bd
00000160: 5476 a53d 8aa1 043e 6377 99bd c01d d1bd
00000170: ba9c 823d 67de 87bd e58d d9bd c12a 2cbe
00000180: 6c54 3ebe 5606 3a3e 73b3 993d 7999 d5bd
00000190: 6858 a6bd 4666 233e 56a4 b43d ceca 203e
000001a0: db90 843d 08ca 063d 22f1 bcbd 9a57 23be
000001b0: 199d 0bbe 1c94 093e e9c7 1a3d db39 943d
000001c0: 6fca 043e fe9e 28be 7741 ed3d 47c7 c13c
000001d0: 55d7 80bc 085f 453d a4a2 ebbd da1b 18be
000001e0: 34a8 25be c850 0c3d 2f42 0b3e 4d86 1ebe
000001f0: 04d8 943d 15c9 d83d ffbc e0bd 7913 b8bd
00000200: f4b7 413d 6e21 7ebd c7dc a73d eee5 19be
00000210: e022 febd 17f5 a2bd ff6c a53d cfd7 f23d
00000220: 2a16 bdbc 20a1 3e3d 0828 2dbe b9ec 463d
00000230: 0306 82bd cc5d e0bd e2a3 253e 8cc3 2d3e
00000240: 94c5 22be 89f9 e2bd 2bec acbd 85cf 183e
00000250: 9781 07be 5a98 1bbe ef97 e6bd 5043 cd3d
00000260: 62df 08be f40a 333e ff91 383e 2b6c a33d
00000270: daf6 843d cafc 6ebd ace3 08be 94e8 82be
00000280: 674b 323e 54f8 55bd cd0d 23bd e87b 1f3e
00000290: 0868 803d 3fb9 2fbe f1f5 883d 5b46 cf3d
000002a0: 53ad f13d efcf 033e 4d60 dbbd 48c8 cb3d
000002b0: aca3 e73d 943c 1a3e 398d 95bd 56f2 f6bd
000002c0: 6da1 05be f452 92bd 1f4e 2bbe 3ae0 e53c
000002d0: 14f2 0a3e 70ae bc3d 516d 0ebe 036f cebd
000002e0: 1cbd bebc 0ed0 dabd 1e07 db3d 81fb 853d
000002f0: facd 853d 57b6 f03c 2df8 e0bd f4b7 da3c
00000300: 7a01 d43d 7e5f 913d 8d45 183d 9ce1 0bbe
00000310: 90ce 073e 95a3 193e 5423 0e3e a141 933c
00000320: dd59 013e 1419 21be 5eb0 cfbb 5c81 f23d
00000330: 494e 99bc 4ee9 cfbc c81f 99bd a747 8c3c
00000340: 76cf a0bd be24 013e d67f 9f3d 032f 1fbe
00000350: 8514 b43d af5a 183e 4607 d93d 0141 ccbd
00000360: 1614 ad3d 290d a73c d2eb dcbc 2779 b5bd
00000370: 6016 013e 6122 963d 737d 373e 3639 04be
00000380: 262d 473c 1160 5bbd 9232 8f3b 85e1 abbd
00000390: 7a30 023e dab0 a53d 3732 3cbe 7241 81bd
000003a0: a529 1e3e 5b52 ad3c 42d1 1dbe c0db f83d
000003b0: a17b a6bd a497 76bc 7d88 e83c e19c 0bbc
000003c0: e1b8 a73d 3077 023e 9e5a 233e c0fa ccbc
000003d0: ed8e 9a3d ef06 203d 7ff5 e4bd e24f 733d
000003e0: a6c5 1ebd 2cce 39be 861c 1e3e ddd3 6bbd
000003f0: 6f9f 95bd cb67 313c 803b 46bc 93bf 17be
-0.11729652 0.053090863 -0.030230897 0.12217649 -0.12104226 -0.027502593 0.00020088638 -0.018260932
-0.1970973 -0.07849241 -0.02205891 0.14653862 -0.12999871 0.068330966 0.033096004 0.16739088
-0.08548329 0.16490157 0.0229267 -0.10906145 0.14048389 -0.14331213 -0.1438914 -0.1576178
-0.013795258 0.07230728 0.14349417 0.092288986 -0.14005063 -0.04907274 -0.008715605 0.040360384
-0.011529438 0.12342821 0.10539126 -0.10124509 -0.014077826 -0.14505498 -0.004667252 -0.087200426
-0.0063721677 -0.13059624 0.09642301 -0.12002922 0.02833038 -0.12871942 -0.10796 0.17024893
-0.17740236 0.11925989 0.13094018 -0.11716205 -0.04124381 -0.15380001 -0.093351856 0.061217517
0.16825004 0.16979179 -0.11772669 -0.02700803 -0.1201086 -0.108535975 0.10194526 0.083715126
0.09320491 -0.19252996 -0.14241701 0.12555702 0.038090155 0.010165024 0.12106276 -0.18725064
-0.1489364 -0.07429828 -0.11340716 -0.17735775 0.16551878 0.052681223 0.13267763 0.047049005
-0.18681578 0.12290012 -0.1882786 0.04046047 0.11759924 0.12924652 0.09836978 -0.11921984
0.0807921 0.12952247 -0.07493474 -0.102107525 0.063775495 -0.06634217 -0.10622767 -0.16813184
-0.18586892 0.1816648 0.0750493 -0.10429663 -0.08122331 0.15956983 0.08820407 0.15702364
0.064729415 0.032907516 -0.0922568 -0.15951386 -0.13634147 0.13435405 0.037788305 0.072375976
0.12967847 -0.164669 0.11584752 0.023654593 -0.015727678 0.048186332 -0.115056306 -0.14854375
-0.16177446 0.034256727 0.13599466 -0.15480919 0.07267764 0.10585228 -0.10973548 -0.08988089
0.047294572 -0.0620436 0.08196407 -0.15029117 -0.12408996 -0.079569034 0.0807743 0.118575685
-0.023081858 0.04654038 -0.16909802 0.0485656 -0.06348803 -0.1095539 0.16175798 0.16969126
-0.15895683 -0.11082751 -0.08443483 0.14922912 -0.13233028 -0.15194836 -0.11259448 0.100226045
-0.13366464 0.17484647 0.18024443 0.07979616 0.06492396 -0.058346547 -0.133681 -0.25568068
0.17411576 -0.052238777 -0.039808083 0.1557461 0.062698424 -0.1716051 0.066875346 0.10120841
0.11800637 0.12872289 -0.10711727 0.0995031 0.11310515 0.15062171 -0.07302327 -0.12057941
-0.1304986 -0.07144728 -0.1672902 0.028061021 0.13568908 0.09212959 -0.13908888 -0.100797676
-0.023283534 -0.106842145 0.10694717 0.06542111 0.065334275 0.029383821 -0.10984836 0.026699044
0.10351844 0.07098292 0.037175704 -0.13660282 0.13262391 0.15003808 0.13880664 0.01797563
0.12631936 -0.15732223 -0.0063381633 0.118410796 -0.018714087 -0.025379803 -0.07476765 0.01712401
-0.0785207 0.12611672 0.07788055 -0.15545277 0.08792976 0.14878343 0.105970904 -0.09973336
0.08451097 0.020392017 -0.026967917 -0.088609986 0.12606192 0.07330776 0.17918949 -0.12912449
0.01215676 -0.053558413 0.004370042 -0.08392624 0.12713805 0.080903724 -0.1837853 -0.06311311
0.15445574 0.021157434 -0.15411857 0.12151289 -0.08129049 -0.015050802 0.028385395 -0.00852129
0.0818956 0.12740779 0.15952536 -0.02502191 0.07546792 0.039069112 -0.11179637 0.059402354
-0.03876271 -0.18145055 0.15440568 -0.057575095 -0.073058 0.010827969 -0.012099147 -0.14819174

model.2.bias f4 [30]
00000000: 0334 28be 6430 75bd 1bd2 273c 2cba 96bc
00000010: 0654 2a3e 4c06 0bbe 22b0 bdbd 8ff9 86bd
00000020: 6c0c 1e3e 8f30 ab3b 81dd 36be d413 5d3d
00000030: 334f 2a3d 8afc 143e 2388 313e 8c2e 2a3e
00000040: 8416 333e ae0f 303e f81a 7ebd 9a6d 16be
00000050: 0533 393e 4dcb 2d3d bffb 12be 0a2b 653d
00000060: 4503 123d 5c32 30be 8429 953b 38d1 8f3d
00000070: b3da b7bd 1379 6ebc
-0.16426091 -0.059860602 0.010242964 -0.01839932 0.16633615 -0.13576621 -0.0926211 -0.06590568
0.15434426 0.0052242945 -0.17857935 0.053973988 0.041579437 0.14549461 0.17337088 0.16619319
0.17489058 0.17193481 -0.06203744 -0.14690247 0.18085869 0.04243021 -0.14353846 0.05594925
0.03564765 -0.1720671 0.004552068 0.07022327 -0.089772604 -0.0145552335

model.4.weight f4 [2, 30]
00000000: b05c 06be cc13 433e fb44 56bc 34d5 80be
00000010: b7d8 debd b2c4 0e3e 7c83 183e 6950 a43d
00000020: 66f8 0ebe c4d6 173e 1fda 043e de31 09bd
00000030: e1ae 4abe 458b f13b 9e10 503d f322 02be
00000040: 1278 85bd 65ba dcbc 1602 7c3d 8ec0 053e
00000050: 7baf fcbd e7b6 dcbd 7f1d cdbb 4dca 543c
00000060: 8a83 f1bd 61a4 41bd 750c 213e 258f 9e3c
00000070: 8cc5 92bd 1a7b af3d 9c2e 473d 181f 0abe
00000080: 1369 9d3d a7f6 85bd a1e1 de3a ae8b 40bd
00000090: cebe 233e a56c 04ba f7c0 733e b701 253e
000000a0: 0658 a8bd 7350 91bc 83e9 ea3d e24e 023e
000000b0: c247 d8bd bc6b 6dbc 8e9c c13d acb7 d43d
000000c0: d3ed 2d3e cfda 0bbe 82e1 073e 76be 5bbd
000000d0: 3e6d 47be 31df 23bd 395f 253d 06ea 273d
000000e0: 9a9f e8bc 7335 02be f971 0f3e ab3e 56bd
-0.13121295 0.1905052 -0.01307797 -0.2516266 -0.10881179 0.13942221 0.14893907 0.080231495
-0.13961944 0.1482802 0.12973832 -0.033494823 -0.19793274 0.0073713386 0.050797097 -0.12708645
-0.06517042 -0.026944349 0.061525427 0.13061735 -0.12338158 -0.10777073 -0.0062596197 0.012987685
-0.11792667 -0.047275905 0.15727408 0.019355366 -0.07166585 0.08568402 0.048628435 -0.13488424
0.07686057 -0.06541186 0.0017004499 -0.04700821 0.15990755 -0.00050515897 0.23804079 0.16113935
-0.08219914 -0.017738556 0.1147032 0.12725404 -0.10560562 -0.014491018 0.094536886 0.10386595
0.16985254 -0.13657688 0.13269618 -0.053648435 -0.19475266 -0.040007774 0.040374015 0.040994667
-0.028396416 -0.12715702 0.14008321 -0.05230586
